onnx_models/keras_iris_model.onnx (onnx, 12783 bytes, 6 tensors)

dense_3/kernel:0 f4 [50, 3]
00000000: 0122 97be e982 4b3e 84f9 b43c 2f7d 15be
00000010: bf20 253d 928b 583e 7c5a bc3e 96c7 f7be
00000020: dbb0 62bd bdce 883e 4477 ec3e 1447 ebbe
00000030: 511c 543e 9eb0 61be c2b3 06bd 4c18 993d
00000040: 69c3 34be 83f0 22be 4d08 21bd 1020 37bd
00000050: 9ed2 d3be 1115 773e 2930 98bc f42f 613e
00000060: 9f2b 093f 1ec5 45bf 7ac7 01be 68d4 893b
00000070: 598c ee3d 0e93 92be 64d0 1a3e 5467 db3d
00000080: d4bf d53d 769b debd aa9d 263e a63d 4abe
00000090: 3679 81be 6607 533e 9607 733e c9b2 c13e
000000a0: 486a 81be 47c1 a33b 06fe 61be 6986 a7be
000000b0: d6b4 6c3e 98bd e2bc 056f 8abe cc9b 793e
000000c0: caeb f7bd 1472 17be 7ce2 88be e02d 50be
000000d0: 7d5b 463d 882e 073e f57e d3bc 56f9 2bbe
000000e0: 8729 26bf 4572 1b3e 3b37 223e 36f1 b7be
000000f0: 3571 1cbc 59c1 963e 69f9 c1be d25d 92be
00000100: 70a0 ec3d 1c22 cb3d 3782 57bd 9961 babe
00000110: 576e f83e 82ab c63d 71a7 05bf bbf6 1a3f
00000120: 8079 81bd 3079 ab3c 5e6b 2abe fc06 35be
00000130: a2cc 153e 36f3 363e c093 653c c8ab fe3d
00000140: a93c 8d3e aa33 debd 37c7 973e 95c1 40be
00000150: 5426 6a3e 3a2b cbbc 7626 50be ae49 983e
00000160: a215 9a3e 1560 9ebd 4123 353e 6f33 a43e
00000170: 70e3 c23d a0fe 5bbc 0df1 31be 7e9b 793e
00000180: 70d7 9dbd c115 8b3e b00a 69be a72f a9bd
00000190: b064 7fbd 40f1 043e 5459 9b3e 96fd d93c
000001a0: 7449 98be 4fe6 97be a418 38be f7e2 773e
000001b0: 1ed5 0f3e de55 bdbc 9441 323e 61b4 64be
000001c0: 7ad6 7abe 8fcc 8ebd a786 c03d 0ab6 733e
000001d0: 57c9 cfbe 8261 16be be0f 7dbe 8e79 8e3d
000001e0: 1b12 afbe 4b73 953e 71b9 aa3e a840 05bd
000001f0: 601b 9abd 48db 72bd 9f66 11be 74ba 83be
00000200: e25d ddbd 5d84 5c3e 7719 683e 12c7 59bd
00000210: 5e96 033e 3a2e 97be 68bb 4cbd 333a 10be
00000220: 57e0 79be 6ed4 a4be b5b3 973e 3ed7 77be
00000230: af24 89be 3060 a6be 866f d73d f062 843e
00000240: 853c 11be 3645 773e b3a8 9d3e da1a 5f3e
00000250: eeee 9bbe 6cfc cd3d
-0.2951813 0.19874157 0.022091635 -0.14598535 0.040314432 0.21146992 0.36787784 -0.4839446
-0.055344444 0.2672023 0.46184742 -0.45952666 0.20713927 -0.2204003 -0.032886274 0.074753374
-0.17652668 -0.1591206 -0.039314557 -0.04470831 -0.41371626 0.2412913 -0.018577652 0.21990949
0.53582186 -0.772539 -0.1267375 0.004206229 0.11647863 -0.2862782 0.15118557 0.10713068
0.10436979 -0.108694956 0.16271082 -0.1975008 -0.2528779 0.20608291 0.23733363 0.37831715
-0.252764 0.0049974057 -0.22069559 -0.32719734 0.23115858 -0.027678296 -0.27037826 0.24375838
-0.1210552 -0.14789611 -0.26735294 -0.2033 0.048427094 0.13201344 -0.025817374 -0.16794333
-0.64907116 0.15180309 0.15841381 -0.35926217 -0.009548475 0.29444388 -0.37885597 -0.28587204
0.115540385 0.09918615 -0.052614417 -0.36402586 0.48521683 0.09700681 -0.5220862 0.6053273
-0.063220024 0.02093181 -0.1664252 -0.17678446 0.14628842 0.17866215 0.014012277 0.124351084
0.27585343 -0.10849698 0.29644176 -0.18823846 0.22866184 -0.024800885 -0.20327172 0.29743713
0.3009463 -0.0773317 0.1768923 0.3207049 0.095160365 -0.013427407 -0.1737711 0.24375722
-0.07707107 0.27165034 -0.22757983 -0.08261042 -0.062351882 0.12982655 0.3034159 0.026610177
-0.2974354 -0.296679 -0.1797815 0.24207674 0.14046142 -0.023112234 0.17407829 -0.22334434
-0.24495879 -0.0697261 0.09400683 0.23799911 -0.40583298 -0.14685634 -0.24713036 0.069567785
-0.341935 0.29189524 0.33344606 -0.032532364 -0.075247526 -0.059291154 -0.14199303 -0.2572819
-0.10808922 0.21534868 0.22665964 -0.053168364 0.1285033 -0.29527456 -0.049983412 -0.14084701
-0.24401985 -0.3219332 0.29629293 -0.24203202 -0.267858 -0.3249526 0.10519318 0.25856733
-0.14183243 0.24147496 0.3079277 0.21787587 -0.30455726 0.10057911

dense_3/bias:0 f4 [3]
00000000: 8773 363b ef89 643d e96d 73bd
0.0027839856 0.055795606 -0.05943099

dense_2/kernel:0 f4 [50, 50]
00000000: 6b68 4cbe 3b42 36be 30f8 c2bd e4f8 6abe
00000010: f77b 473e d914 a4bd e801 12be b099 d43d
00000020: 265b 24be d9ee c6bc 90b1 37be 187d 9e3c
00000030: cacf f4bb c8a5 47be dcd4 1abe 8208 a33a
00000040: a089 d4bd 9f0a c4bd fa56 643e b237 19be
00000050: 3618 d93d 2823 623e 0c04 d4bb 69f4 a2bd
00000060: 1b2d 013e 8027 14be 186c 68be ec85 3cbd
00000070: 85da 0f3d b163 4fbe 2f3e 1c3e 4869 1bbd
00000080: 0bc1 0a3e df2d 493e 80ca 063e 5d43 7d3e
00000090: c58a 48bc 9aaa 4fbd 6b90 073e 933c 163d
000000a0: 1e15 983e 4425 58be 7c6b e9bd 9b63 febd
000000b0: 6fc2 51be 20b1 dfbb fe46 30be bae3 dbbd
000000c0: fc18 523d 9a05 a33d 5c82 313e a9e1 1fbe
000000d0: cb24 973e 48e8 353e ab7a 1a3d b8f4 e13d
000000e0: 2dc4 22be 392c 0dbe 238a 913e d686 ef3d
000000f0: b2ed d6bd 9f3f 703e 9cf5 153e deb0 d03d
00000100: a2d2 2bbe bb51 0fbe 9c29 d7bd b47c 4bbe
00000110: 681b 913e beb7 dabd 0491 f0bc 4035 e53d
00000120: 04ad cfbd 5a73 7fbe 7606 ba3d 2af6 923d
00000130: c97e 0f3e 41fc 063e 3005 fa3d 90c0 58be
00000140: 1039 913c 9e27 bd3d 8597 5ebe 025a 4fbe
00000150: 688f 883e 7b56 823d ab80 ef3d 2a43 8fbe
00000160: 464c 80bd 6a91 b93d 4d09 883d 3f1f f7bd
00000170: 313c 5a3e 3b30 09be 2711 2b3e 08a0 14be
00000180: fcff e8bd fe1b 773c 46c8 fcbd a899 f43c
00000190: 8f16 023e 9286 1abe 6851 cdbc f3be 04be
000001a0: cc83 583d 8f1e 353e ca50 f53d c979 473e
000001b0: 6ef6 cb3d c201 a53d a242 8a3d 6c2b 563d
000001c0: bee9 e4bd a40d 5dbd 6810 ea3c 590f 663e
000001d0: edd3 6a3e 69fd 2cbe 02f1 b2bd 463f f83d
000001e0: a0a2 dbbd 77c2 44be d2a8 15be 00ae 71bd
000001f0: 254e 6d3e c479 03bd 78f9 a9bd 4850 e2bd
00000200: 8f50 6abe 20f0 2cbe 4e64 0bbe 271a 023e
00000210: ec3f 523d b1cd 0a3e 545f c2bd 4820 24be
00000220: 7696 923d 9c90 623d 86bd ae3d e8f3 e3bd
00000230: d3a3 6f3e 4522 113e ea1b 803d 3ff2 0a3e
00000240: 2e7f aabd c5d5 2a3e e1ef 323e d453 253d
00000250: 8ff9 0c3e 6fcc 6e3e ecf2 77be 47ff 5b3e
00000260: 49f8 b63d a045 cc3d 2603 bfbd 45ac 463e
00000270: cb18 323e 4f03 32bd 6475 4fbc cb37 313e
00000280: e059 e13b 44db 18bd 15d9 6d3e 7759 2f3c
00000290: 61e1 453e fd7b e33d b073 bfbd 496e 6e3e
000002a0: 3eca 923e da16 47bb 8955 fa3d a8e3 e73d
000002b0: 53f9 c8bc 9b21 873c 742a 313d cae9 a8bd
000002c0: f071 f3bd 70e8 77bd cacc 6abe f47c 433e
000002d0: 184f 823e 2158 253e d2c7 30be aafd febd
000002e0: e98f 523e 8af4 d23d 5427 aabd bc1d efbd
000002f0: 61b7 3dbe d86a 063e c7e2 e1bd 3729 72be
00000300: 29c5 23be 11c0 143b 0bee 2e3e 5611 883d
00000310: f10f 65be b6e6 6c3e 77a7 6e3e a2b2 ad3d
00000320: 58bd 9cbc 7164 3a3e 44e1 533d d461 643d
00000330: f630 1bbe 14db bcbd 3e21 f73d 9af6 fdbd
00000340: e81a 74be 9e8b 9ebd 1d62 403e dded 303e
00000350: cbb0 0e3e 141a 663d e20f 3fbe 9c2e 09be
00000360: 8a62 ccbd 882a 9f3c 7ce3 4a3d 3825 6abe
00000370: 585d 07be 7844 a93c 52da 74be 32bc 77be
00000380: 9428 07bd a784 773e 2089 953b d12e 263e
00000390: 4483 0e3d 245e 693d 1026 6bbe d0c9 2fbe
000003a0: 125d 833d 365e c43d aa48 973d 4ccd 1d3d
000003b0: 6bbd 053e b44d 313d 14b5 49bd bc43 2b3d
000003c0: f21b 45be a8d1 e13c 40a2 86bd ffce 34be
000003d0: 985a ab3c 8ab7 e73d a0ac 47be 264b 25be
000003e0: c276 ea3d 68e6 d33c 42ba 37be f123 253e
000003f0: bb75 153e 7fe8 2bbe a1e3 743e f02e 7ebd
-0.19961707 -0.17798702 -0.09519994 -0.22946507 0.19480883 -0.08011789 -0.1425854 0.10380876
-0.16050395 -0.024283813 -0.17938828 0.019346759 -0.0074710594 -0.19496834 -0.15120262 0.0012438449
-0.103778124 -0.09572338 0.22298804 -0.14962652 0.10600321 0.22083724 -0.006470209 -0.07956774
0.12614863 -0.14468193 -0.22697484 -0.046026155 0.035120506 -0.20252873 0.15258096 -0.0379422
0.13550203 0.19646405 0.13163185 0.24732728 -0.0122401165 -0.050699808 0.13238685 0.03667886
0.2970361 -0.21107966 -0.11397454 -0.12421342 -0.20484327 -0.006826535 -0.17214581 -0.10736795
0.05129336 0.07960053 0.17334884 -0.15613426 0.29520258 0.1776439 0.03771464 0.110330045
-0.15895148 -0.13786401 0.28425702 0.1169564 -0.104945555 0.2346177 0.14644474 0.10189985
-0.16779569 -0.13996021 -0.10505983 -0.19871789 0.28341222 -0.10679577 -0.029366024 0.11191797
-0.10140422 -0.24946347 0.090832636 0.07175858 0.14013208 0.13182165 0.12208021 -0.21167207
0.017727405 0.09236072 -0.21737488 -0.20249179 0.2667191 0.06364151 0.11694463 -0.2798093
-0.06264548 0.09060939 0.06642399 -0.120665066 0.21312024 -0.13397305 0.16705762 -0.14514172
-0.1137695 0.015082357 -0.123428866 0.029858425 0.12703918 -0.15090397 -0.025063232 -0.12963466
0.052860066 0.17687438 0.119783 0.19480051 0.09959112 0.08056976 0.067509905 0.052287504
-0.11177395 -0.053968087 0.028572276 0.22466792 0.22932406 -0.16893543 -0.08737375 0.121214435
-0.10724378 -0.19214807 -0.14615181 -0.05900383 0.23174341 -0.032098547 -0.082995355 -0.11050469
-0.22882293 -0.16888475 -0.13612482 0.12705289 0.051330492 0.13555028 -0.09490839 -0.1602794
0.071576044 0.05531369 0.085322425 -0.11130506 0.23402338 0.14173229 0.06255324 0.13568972
-0.08325039 0.16683109 0.17474319 0.040363148 0.13767074 0.23320173 -0.24213761 0.214841
0.089340754 0.099742174 -0.093267724 0.19401653 0.1739227 -0.043460187 -0.012662265 0.1730644
0.006877169 -0.037318483 0.23227341 0.010702482 0.19324256 0.11107633 -0.093482375 0.23284258
0.28669924 -0.003037861 0.12223346 0.11322719 -0.02453295 0.016495517 0.043253377 -0.08247717
-0.11886966 -0.060524404 -0.22929683 0.19090635 0.2545097 0.161469 -0.17263725 -0.12450726
0.2056271 0.103005484 -0.083082825 -0.11675593 -0.18526985 0.13126695 -0.110295825 -0.23648535
-0.1599318 0.0022697488 0.17082994 0.066439316 -0.22369362 0.23134884 0.2330607 0.08481337
-0.019133255 0.18202378 0.051728502 0.05575736 -0.15155396 -0.09221473 0.12066887 -0.12400551
-0.23838389 -0.077414736 0.18787427 0.17278238 0.13934629 0.056177214 -0.18658403 -0.13396686
-0.09979732 0.01942946 0.049533352 -0.2286576 -0.13219202 0.020662531 -0.23911408 -0.24192885
-0.032997683 0.24171697 0.0045634657 0.16228797 0.034793153 0.056974545 -0.22963738 -0.17166829
0.06414236 0.09588282 0.073869064 0.038525864 0.13060538 0.043286994 -0.049244955 0.041812643
-0.19248942 0.027565792 -0.065739155 -0.17657088 0.020917222 0.11314304 -0.19499445 -0.16141948
0.114484325 0.025866702 -0.17942145 0.16126992 0.14595692 -0.16787909 0.23914959 -0.06205648

dense_2/bias:0 f4 [50]
00000000: f95b 13bc 3add 24bd 20f4 0c3d 030a be3d
00000010: 03c1 cfbc 1a61 17bc b5ec 943d 70a0 7dbc
00000020: 20c7 e73c 5fe1 44bc 0000 0000 0000 0000
00000030: 4024 3abc c7c9 44bb 0000 0000 355b 74bd
00000040: 0000 0000 fcc7 94bc 5d25 023e eb4e 863d
00000050: 325b 773d 678d 74bc b54f 5abd c9cf 68bd
00000060: 0000 0000 0000 0000 0000 0000 0000 0000
00000070: 00b4 b2bb 788d 9ebc cdcd 7c3d 0000 0000
00000080: 0000 0000 01f0 acbb 7031 8e3d a3b9 65bd
00000090: da11 7cbd 95db 8bbd 16e9 833d e4f5 cdbb
000000a0: adb1 9e3c 0000 0000 0000 0000 286b 8c3d
000000b0: 0000 0000 0000 0000 0000 0000 5706 12bd
000000c0: 0000 0000 0000 0000
-0.008994096 -0.04025004 0.034412503 0.09279253 -0.02536059 -0.009239459 0.07271711 -0.015480146
0.028293192 -0.012016623 0.0 0.0 -0.011361182 -0.0030027495 0.0 -0.059657294
0.0 -0.018161766 0.12709565 0.06558021 0.060389705 -0.014926291 -0.05329867 -0.056838784
0.0 0.0 0.0 0.0 -0.0054535866 -0.019354567 0.061719704 0.0
0.0 -0.005277634 0.06943023 -0.05608524 -0.061540462 -0.06828991 0.06440942 -0.006285416
0.019371832 0.0 0.0 0.06856376 0.0 0.0 0.0 -0.035650577
0.0 0.0

dense_1/kernel:0 f4 [4, 50]
00000000: b62e a0bd e476 bb3e 96a0 98be b183 9d3e
00000010: ebf3 56be a695 3dbe 4470 ac3d 0114 983e
00000020: f43a 1d3e 3895 a0be 6a5e b3bc a3e4 68be
00000030: 1b35 9dbe 1982 a13e 5001 a53d 8a4a 27be
00000040: ad18 9dbe 3944 b23e 6326 a83d 52b5 3d3e
00000050: f079 70be f2e5 d33d af92 d6bc 93eb ca3d
00000060: 159d 13be a021 27bc 259a 423e c468 913c
00000070: 1270 33bd 2814 27bd 93bf 8d3c 98fa 4d3e
00000080: 4bb0 5b3e 17b6 9f3e 30f3 f8bc b39b 87be
00000090: 92cc 103e d6ec 133e b0a9 07be 66c5 0a3e
000000a0: 768f 50be ee87 9ebe f0d2 25be 4b9c 28be
000000b0: 119a d2bb 007c 82be b18a 833e ba12 023e
000000c0: 9f18 933e 2bc0 a7be 0cb7 8f3e af17 bd3d
000000d0: 1355 a2be 7957 183d a0bc 003e 8843 9ebe
000000e0: 019a 503e d839 1a3e d46d 8a3e 40a1 253d
000000f0: cdf0 443e 05cd 5b3e 0c79 e13d 3df9 50be
00000100: 08e8 aa3e d481 cf3e bf25 383e 4672 713e
00000110: 8043 183e 20c8 23be 60ec debd a52b c63e
00000120: 4512 f03e ade6 5f3e e912 6c3e 5bed 8cbe
00000130: 9736 973d b119 58be 5024 06be 18a4 683d
00000140: ffd1 3fbe 8b27 c839 dfbf ae3e 4b32 883e
00000150: 401e b4bd 80b0 cebc bda4 adbe 02a5 44bd
00000160: aca8 ddbd eb9d 47be 4661 7f3e 622d a13e
00000170: 3b9d 4abe 4030 99bd c4a7 19be 2655 93be
00000180: 2c66 923e d6f4 c33e d264 a6be b10c 993e
00000190: f5e0 723e ab23 b5be 9502 903e cb47 d83d
000001a0: 1b91 2abe e647 24be e285 203d a6c0 9f3d
000001b0: 737a 78be c006 ac3b 38ea 54bc cb24 4c3e
000001c0: 346c 843d a931 a63e f7a0 89be 7ef6 0a3e
000001d0: fecb b43e 7716 a6be 8bc4 093e f83e 223e
000001e0: 70ec 45be 91a0 8fbe fe30 aabe c9ad 443d
000001f0: 0f3b a3bd 003d b9ba 37b1 58bd dae2 a53e
00000200: eadf df3e e028 83bd 1f2c ae3e 3d25 9d3e
00000210: c2ca fa3d 7815 553e 1b81 16be 267a 45be
00000220: 1b29 863e 849b a23e 9810 80be 70cb 81be
00000230: ee0d 89be 92de 5c3e a0ea 913d e83a 2f3d
00000240: 553e 8c3e 9a83 763e 00a9 37be 51ef 713e
00000250: 33a1 493e 0000 95b6 a70c f33b 4191 0c3e
00000260: 6b14 803e 7ffe c4bd 5b59 8d3e ac01 853d
00000270: 3117 b03e a42e 8abe 9d4e 85be a6f7 2e3e
00000280: a92e b8bd e701 f03e 20c5 8bbe 006b a8be
00000290: 22b0 01bd 6b01 d7be 9059 813d 348b aabe
000002a0: ab30 10be 06f5 6d3e ab14 03be bb63 03be
000002b0: 3df0 b2bd 8625 eb3d 7999 8ebe 54d7 a6bd
000002c0: 5908 f1be 4eeb 0c3f 3c20 f93c 2c69 8abd
000002d0: 13c4 e83e b0c7 64be ddfb 75be 2ae8 aebe
000002e0: b438 e23d 4086 cb3d 8672 f83e e81a 11bc
000002f0: 26b9 0b3e a829 293d 06a4 70be 35b4 8e3e
00000300: a26c 703e cb3c 55be 7260 f03e 426d 3a3e
00000310: 780b 1f3e 743e 453d 96fa 64be 0312 a0be
-0.078214094 0.36614144 -0.29810017 0.30764535 -0.20991485 -0.18514118 0.084198505 0.29702762
0.1535452 -0.31363845 -0.021895606 -0.22743468 -0.3070458 0.3154457 0.08056891 -0.16337028
-0.3068289 0.34817675 0.08210447 0.185262 -0.23484015 0.10346593 -0.026192991 0.099082135
-0.14415391 -0.010200888 0.19004114 0.017750151 -0.04380805 -0.040790707 0.017303264 0.20115125
0.21453969 0.3119361 -0.030389398 -0.26485977 0.14140537 0.14445814 -0.13248324 0.13551864
-0.20367226 -0.3096308 -0.16193748 -0.16465871 -0.0064270576 -0.2548523 0.2569175 0.12702456
0.28729722 -0.327638 0.2806934 0.09233033 -0.3170553 0.037192795 0.12571955 -0.30910897
0.20371248 0.15061128 0.27036917 0.040436983 0.19232483 0.21464927 0.11009416 -0.20407577
0.3338015 0.40528738 0.17983149 0.23578748 0.14869499 -0.1599431 -0.10884929 0.38705173
0.4688894 0.2186534 0.23054089 -0.27524838 0.07383459 -0.2110355 -0.1309979 0.056797117
-0.18732451 0.00038176434 0.3413076 0.2660087 -0.08794832 -0.025230646 -0.33914748 -0.048008926
-0.10823187 -0.19493835 0.2493945 0.31479937 -0.19786541 -0.07479906 -0.15005404 -0.287759
0.28593576 0.38272732 -0.32498795 0.29892495 0.23718627 -0.35378775 0.2812697 0.105605684
-0.16656916 -0.16043052 0.03919018 0.07800417 -0.2426546 0.005249828 -0.012995295 0.1993591
0.064659506 0.32459763 -0.2688062 0.13570592 0.35311884 -0.32439014 0.13453881 0.15844333
-0.19328475 -0.2805219 -0.33240503 0.048017297 -0.07970249 -0.0014132559 -0.05290338 0.32399637
0.4372552 -0.06404281 0.34018037 0.30692473 0.12245704 0.20808971 -0.14697687 -0.19284877
0.26203236 0.31759274 -0.2501266 -0.25350523 -0.2676844 0.21569279 0.07124829 0.042780787
0.27391306 0.2407364 -0.17935562 0.23626448 0.19690399 -4.440546e-06 0.0074172798 0.13727285
0.25015578 -0.09618854 0.27607235 0.064944595 0.34392694 -0.2698871 -0.2603654 0.17086658
-0.08993275 0.4687645 -0.27298832 -0.32894135 -0.031662114 -0.4199327 0.06315911 -0.3330933
-0.14081065 0.23238 -0.12800853 -0.12831013 -0.08737228 0.114817664 -0.27851465 -0.08146539
-0.4707668 0.55046546 0.030410878 -0.06758341 0.45462093 -0.223418 -0.2402186 -0.34161502
0.110459715 0.099377155 0.48524874 -0.008856513 0.13644847 0.041299492 -0.2350007 0.27871862
0.2347894 -0.20823972 0.46948582 0.18205741 0.15531719 0.048155263 -0.22361216 -0.31263742

dense_1/bias:0 f4 [50]
00000000: 3fde 41bc fa25 b53d 0000 0000 6fc3 fe3c
00000010: 0000 0000 0000 0000 3a6c 35bd c40f 813d
00000020: 2207 233e 0000 0000 d0ca b43c 894b acbd
00000030: 0000 0000 a7b6 663d 5c5f 283e 15ce 0e3e
00000040: a8ca 96bd ee20 833d 4194 f0bd 4eb4 bcbd
00000050: 0000 0000 51fc 2f3e ee4b da3d 32f8 85bd
00000060: 5d59 05bd 0000 0000 f6b5 8b3d 3082 e23b
00000070: 9294 febc 0000 0000 5ebc ccbd 30f5 88bd
00000080: 2919 b83d 073a 663d 0000 0000 0000 0000
00000090: ca60 a1bd b540 b1bc 0000 0000 0000 0000
000000a0: 0000 0000 9fd9 8dbd 0000 0000 0000 0000
000000b0: 0fd1 11bc 0000 0000 0b47 913d 34fe cb3d
000000c0: 2fbd 0a3d 0000 0000
-0.011832773 0.08845134 0.0 0.03109905 0.0 0.0 -0.044292666 0.06301835
0.1592069 0.0 0.022069365 -0.08412845 0.0 0.056326535 0.16442627 0.13945802
-0.07362872 0.06402765 -0.11747027 -0.09214078 0.0 0.17186095 0.10659014 -0.0654148
-0.032555927 0.0 0.06821816 0.006912492 -0.031076703 0.0 -0.09996866 -0.06687391
0.08989174 0.056207683 0.0 0.0 -0.07879789 -0.0216373 0.0 0.0
0.0 -0.069262736 0.0 0.0 -0.008899941 0.0 0.070936285 0.09960595
0.033871826 0.0
