onnx_models/pytorch_iris.onnx (onnx, 12329 bytes, 6 tensors)

lin1.bias f4 [50]
-0.063775524 -0.50750977 0.43549323 -0.03481498 0.31371212 -0.06591281 0.49770308 0.3414513
-0.48695353 -0.25814778 -0.306134 -0.105812624 0.07626339 -0.018790176 -0.37009776 -0.2814721
0.411622 0.12681906 -0.02123487 -0.29819155 -0.0032289238 0.112395786 -0.13485913 -0.28003645
0.34302258 0.2308886 -0.28511542 -0.217435 0.22664839 -0.2535746 0.22035256 -0.3753875
0.18559736 0.14558001 -0.16321573 0.41423604 -0.2179197 0.3818265 0.44342744 0.39940917
0.45456097 -0.28365105 -0.38615078 0.24825782 -0.45498532 0.4655053 0.065464914 0.17349002
0.4341351 0.19081713
00000000: be9c 82bd 29ec 01bf f8f8 de3e 279a 0ebd
00000010: e09e a03e 4cfd 86bd f0d2 fe3e b4d2 ae3e
00000020: f951 f9be f22b 84be 98bd 9cbe 4ab4 d8bd
00000030: fb2f 9c3d dbed 99bc 747d bdbe 1c1d 90be
00000040: 1ec0 d23e dbdc 013e c0f4 adbc 90ac 98be
00000050: 5a9c 53bb c32f e63d 8318 0abe f060 8fbe
00000060: a8a0 af3e 106e 6c3e a6fa 91be 48a7 5ebe
00000070: 8416 683e 88d4 81be 1aa4 613e ca32 c0be
00000080: 3c0d 3e3e ed12 153e 0622 27be bf16 d43e
00000090: 5826 5fbe c37e c33e ec08 e33e 5c7f cc3e
000000a0: 37bc e83e b63a 91be 8eb5 c5be 4c37 7e3e
000000b0: d6f3 e8be b656 ee3e 7812 863d 5ea7 313e
000000c0: f546 de3e 9165 433e

lin1.weight f4 [50, 4]
0.46343994 -0.12860522 -0.4374172 0.07707811 0.47017935 0.012486392 0.32490066 -0.3459642
0.1011128 -0.34133184 0.3038497 -0.43239626 0.009304508 -0.22536828 0.5303191 0.46668327
-0.11453569 -0.42113876 -0.0032848716 0.13904768 0.34890026 0.49117002 -0.25540626 0.11007388
-0.4923858 0.2000314 0.16295642 0.3790834 0.22482735 0.3022887 0.07716245 0.4855799
-0.057058625 0.34670338 -0.50016254 -0.34661782 -0.021091878 0.2931779 -0.13512537 0.15777619
-0.42582822 -0.36904174 0.23993015 0.37642193 -0.17551795 0.3003227 -0.011785153 -0.41195026
0.27059054 0.26051676 -0.038770754 -0.40356442 0.06921179 -0.188599 0.53501153 -0.058497824
-0.49849153 -0.21106869 -0.010417461 0.27474707 -0.33283758 0.07947987 0.02581942 -0.32354546
-0.099532604 -0.460975 0.3025539 -0.36494744 -0.15244144 0.07222298 0.5331133 0.19153298
-0.14633262 -0.33772153 -0.23319632 -0.14796251 -0.25338006 -0.4966674 0.05726695 0.45402944
-0.24008852 0.49010885 0.33286813 0.37933412 -0.06552671 -0.011499859 0.27032116 -0.035258137
0.2909688 -0.48522905 0.28818873 0.22043657 -0.38924938 0.3267991 -0.100037456 -0.40536243
0.41624174 -0.4169377 0.27884337 0.2776162 -0.055395246 0.09942174 -0.48402655 0.018344045
-0.23031807 -0.3524999 -0.20177203 -0.4099354 -0.4712143 -0.29828548 0.20613515 0.07161605
-0.4484374 -0.4850726 0.37076974 0.2606675 -0.22428602 0.0618397 -0.13294166 -0.21190572
0.025362037 -0.3125612 0.54840684 0.07688163 0.16704732 -0.15889847 -0.38456488 0.21684289
-0.14425427 0.26364067 -0.117348105 0.42193672 -0.3659268 0.33122757 0.43362427 -0.42627946
0.26679224 -0.20906845 0.09403789 0.41479567 0.1655593 0.09820099 -0.17428817 -0.29125828
0.2848753 0.52912277 -0.3645785 -0.30666667 0.17006645 0.25432974 -0.07654499 -0.24106218
0.3655253 -0.053016 -0.10173388 -0.090828724 -0.3049289 0.24608481 -0.37877017 -0.2730713
0.45610553 -0.19412014 -0.021868804 0.01896624 -0.28249067 0.39292645 0.007154286 -0.45286202
-0.06047543 0.5121886 0.036178138 -0.08465266 0.37272668 0.48394105 0.29410744 -0.17222673
0.0041741827 0.44711682 -0.27184185 0.31082955 0.0026462793 0.18465157 -0.16651088 0.4285916
-0.3899212 -0.08551991 -0.29863572 -0.4055717 0.24473344 -0.22211039 0.5027153 0.19277653
-0.15717033 0.2499599 -0.50023836 -0.37151653 0.10572636 0.53367287 0.40374088 -0.48644182
00000000: 0048 ed3e 16b1 03be 26f5 dfbe 21db 9d3d
00000010: 59bb f03e b993 4c3c 6159 a63e 3822 b1be
00000020: 3a14 cf3d 0cc3 aebe 3092 9b3e 0b63 ddbe
00000030: ef71 183c f1c6 66be fec2 073f 1cf1 ee3e
00000040: b091 eabd 809f d7be 0047 57bb 8462 0e3e
00000050: 0ea3 b23e a37a fb3e 9cc4 82be 6a6e e13d
00000060: fe19 fcbe 08d5 4c3e 0cde 263e 3817 c23e
00000070: 2439 663e 96c5 9a3e 5907 9e3d ee9d f83e
00000080: 4eb6 69bd 1b83 b13e a70a 00bf e477 b1be
00000090: e0c8 acbc 6a1b 963e 4e5e 0abe 1590 213e
000000a0: 2806 dabe 0af3 bcbe 40b0 753e 60ba c03e
000000b0: faba 33be e6c3 993e 8416 41bc 25eb d2be
000000c0: d88a 8a3e 7462 853e 15ce 1ebd ff9f cebe
000000d0: e9be 8d3d 1920 41be 84f6 083f 6a9b 6fbd
000000e0: 483a ffbe 6422 58be 00ae 2abc a6ab 8c3e
000000f0: b069 aabe 58c6 a23d 4083 d33c c0a7 a5be
00000100: c0d7 cbbd ea04 ecbe 58e8 9a3e 64da babe
00000110: 9c19 1cbe a4e9 933d 1d7a 083f 3921 443e
00000120: 38d8 15be d6e9 acbe 04cb 6ebe 7c83 17be
00000130: 08bb 81be 304b febe c090 6a3d 8c76 e83e
00000140: c4d9 75be 8cef fa3e b16d aa3e 1538 c23e
00000150: de32 86bd e869 3cbc 8967 8a3e d66a 10bd
00000160: ddf9 943e f16f f8be 798d 933e 20ba 613e
00000170: b24b c7be 3652 a73e 70e0 ccbd aa8b cfbe
00000180: a31d d53e dc78 d5be 8fc4 8e3e b623 8e3e
00000190: 20e6 62bd a09d cb3d 54d2 f7be 4046 963c
000001a0: 80d8 6bbe de7a b4be 549d 4ebe 0ee3 d1be
000001b0: 0043 f1be e0b8 98be 1815 533e 70ab 923d
000001c0: 9699 e5be 705b f8be 88d5 bd3e 3676 853e
000001d0: 3cab 65be a04b 7d3d dc21 08be d0fd 58be
000001e0: 0cc4 cf3c 0608 a0be 6464 0c3f 1e74 9d3d
000001f0: 740e 2b3e 48b6 22be b0e5 c4be 100c 5e3e
00000200: 64b7 13be e9fb 863e 3454 f0bd 1708 d83e
00000210: c25a bbbe a996 a93e 0004 de3e 4d41 dabe
00000220: fe98 883e 0a16 56be f096 c03d 1960 d43e
00000230: 6188 293e 9a1d c93d 9978 32be ce1f 95be
00000240: 2ddb 913e 9774 073f 08aa babe 6a03 9dbe
00000250: e625 2e3e 8237 823e 9fc3 9cbd 01d9 76be
00000260: 2226 bb3e 4e27 59bd da59 d0bd 6904 babd
00000270: a41f 9cbe a8fd 7b3e 2aee c1be 00d0 8bbe
00000280: aa86 e93e 6ec7 46be 3526 b3bc 175f 9b3c
00000290: 9ea2 90be a82d c93e 806e ea3b 88dd e7be
000002a0: 16b5 77bd cb1e 033f 872f 143d 605e adbd
000002b0: 08d6 be3e 1fc7 f73e 4095 963e 345c 30be
000002c0: 95c7 883b 7fec e43e db2e 8bbe 0d25 9f3e
000002d0: 336d 2d3b 4d15 3d3e d481 2abe 5c70 db3e
000002e0: c0a3 c7be 1025 afbd c8e6 98be 18a7 cfbe
000002f0: 679b 7a3e e870 63be f3b1 003f 3667 453e
00000300: 42f1 20be 7df5 7f3e 9f0f 00bf 6a37 bebe
00000310: 1087 d83d c99e 083f 20b7 ce3e e70e f9be

lin2.bias f4 [50]
-0.09442992 0.086335 0.0022710264 -0.01762873 -0.005023882 0.11294733 -0.0057426994 -0.0049096365
-0.0031764242 -0.1458718 -0.06485552 -0.049177922 0.096306354 0.052108303 -0.08956717 -0.040522866
0.14907986 0.020571768 0.019692514 -0.050706826 0.08864154 -0.0021440913 -0.05252996 -0.07872054
-0.0289912 0.11677791 0.11091357 0.12166269 0.02331108 -0.12577875 0.036119323 -0.047876567
0.07966189 0.13307793 0.069083996 0.13670829 -0.024297917 0.14334473 -0.10477932 0.035725452
0.12882753 0.0006772316 0.07873192 -0.04861274 0.012676233 -0.107071884 0.051406436 0.07721547
0.047458246 -0.16565864
00000000: 7964 c1bd 68d0 b03d 80d5 143b 206a 90bc
00000010: 609f a4bb ee50 e73d 412d bcbb 04e1 a0bb
00000020: 8e2b 50bb 6b5f 15be f9d2 84bd ca6e 49bd
00000030: 443c c53d 846f 553d fe6e b7bd 4efb 25bd
00000040: 64a8 183e 2086 a83c 3252 a13c f6b1 4fbd
00000050: b289 b53d e283 0cbb a829 57bd 3c38 a1bd
00000060: f47e edbc 4229 ef3d a726 e33d 4a2a f93d
00000070: e1f6 be3c 25cc 00be dbf1 133d 381a 44bd
00000080: c625 a33d 9545 083e e97b 8d3d 42fd 0b3e
00000090: 6d0c c7bc f6c8 123e 8a96 d6bd da54 123d
000000a0: 5deb 033e 3e88 313a 333e a13d 271e 47bd
000000b0: faaf 4f3c 8148 dbbd 8e8f 523d 2523 9e3d
000000c0: 9463 423d 6ba2 29be

lin2.weight f4 [50, 50]
-0.05173809 0.095322266 0.0090620965 0.06501351 0.050455645 0.0021219105 -0.06268268 -0.060157023
0.0992706 -0.083792806 0.08215539 0.10012913 0.040829718 0.04400763 0.12319903 -0.10500136
-0.04558868 -0.07573735 0.07986708 -0.049818963 -0.021207117 -0.0074647814 -0.040116236 -0.13243166
-0.11346918 -0.03384997 0.0750362 -0.09867741 0.12578286 0.10026555 0.09191243 0.13536681
-0.053049177 0.11774804 -0.09901499 0.07394135 0.11903171 0.062184006 0.098534465 0.044840157
-0.036222115 0.1277522 -0.047167346 -0.08543818 0.041375697 -0.061145708 0.11145054 0.04547912
0.0042812377 -0.10273027 0.1147113 0.10364729 -0.006726116 -0.1272674 -0.12886558 0.04909113
-0.008753076 -0.101588994 0.09938903 -0.13097803 0.12226386 0.04469703 -0.093697965 0.12561317
-0.10436623 -0.112406775 -0.0809174 0.0136448 -0.019703448 0.12366249 -0.07038421 -0.06816683
0.020393506 -0.111774325 -0.011886746 -0.11316202 0.105760545 0.10387391 0.053608283 0.022629216
-0.09135957 -0.073652886 0.028815493 -0.06803412 0.121957615 -0.071296036 -0.085715234 0.09147689
0.04770857 0.033978045 -0.05427611 -0.012993604 0.07371214 -0.045402393 -0.030234836 0.1284527
0.07173996 -0.12722124 -0.0114632845 -0.06957472 0.10342802 -0.107262336 0.036575615 -0.11886332
-0.12632021 -0.09936978 0.09468186 0.12302978 0.108233854 -0.055737928 -0.08962963 0.05574146
0.11401267 0.042905018 -0.11379791 -0.060188264 -0.07426564 -0.039556943 -0.06263221 0.1341296
-0.078654066 -0.03444492 0.1295795 -0.057011418 -0.081941366 0.0065179765 -0.047546618 0.059602097
-0.033901274 -0.10646154 0.0071946383 -0.06695287 -0.12363762 -0.05417256 -0.02045326 -0.027803399
-0.07584152 -0.12676613 -0.03905885 0.0723858 -0.071318135 -0.12470813 0.024028152 -0.09229371
0.07416047 0.08332664 0.10869251 -0.13647836 -0.11081454 0.07928896 -0.051060997 -0.008255884
0.11529802 0.045793176 -0.06659894 -0.0628719 -0.042583354 -0.10781996 -0.105999365 -0.11698315
-0.12778585 -0.0016663224 -0.04691627 0.0366219 0.13259478 0.11021198 0.062547565 -0.12107307
-0.03930293 0.053895414 0.060386986 -0.07430653 -0.045276575 0.12268455 -0.06862974 0.096214324
-0.0139288455 -0.008234113 -0.037580438 0.03814821 0.08367865 -0.010599062 -0.09373672 0.019959062
-0.12624551 -0.08854137 -0.12306106 0.0077155083 0.028847784 -0.05974117 -0.040878296 0.12671335
0.037919343 -0.0817426 -0.0400329 -0.020603016 -0.052187443 0.027625158 0.0951819 0.036201015
0.087785006 -0.076005 -0.060472287 -0.055742547 0.07475586 0.019647583 0.08470471 -0.12896948
-0.07231169 -0.057257444 -0.09051685 0.09553526 -0.12949674 0.07830191 -0.06917825 -0.015120879
0.06545554 -0.082590714 0.020640612 -0.06348914 -0.11879336 0.0994741 -0.100324646 -0.06260928
-0.04662487 0.11923443 -0.13419397 -0.011170432 -0.1072222 0.046471298 0.052029073 -0.13259965
-0.04360783 0.103507906 -0.081359774 -0.031224005 -0.0075131655 -0.13598055 -0.09625149 0.022006422
0.10243137 -0.037152417 -0.122967765 0.07918912 0.0583082 -0.1403725 0.09141235 -0.11235243
0.0006340891 0.037998915 0.050503075 0.015658319 0.11909522 -0.052577928 0.13290282 -0.12100406
00000000: 52eb 53bd 5238 c33d 3079 143c ce25 853d
00000010: 94aa 4e3d c00f 0b3b c75f 80bd 3667 76bd
00000020: 624e cb3d 909b abbd 1641 a83d 8010 cd3d
00000030: 103d 273d 5841 343d c64f fc3d f40a d7bd
00000040: 32bb 3abd 2f1c 9bbd 5a91 a33d f80e 4cbd
00000050: 8cba adbc 209b f4bb ec50 24bd 2a9c 07be
00000060: 8862 e8bd 44a6 0abd 94ac 993d 6217 cabd
00000070: 39cd 003e 0658 cd3d 963c bc3d 999d 0a3e
00000080: 184a 59bd e225 f13d 5fc8 cabd 906e 973d
00000090: e6c6 f33d a8b4 7e3d 70cc c93d 50aa 373d
000000a0: a45d 14bd 79d1 023e 8c32 41bd 36fa aebd
000000b0: 9079 293d ec73 7abd 2e40 e43d 5048 3a3d
000000c0: a049 8c3b 3f64 d2bd c2ed ea3d 0845 d43d
000000d0: c066 dcbb 6352 02be 57f5 03be c813 493d
000000e0: 1069 0fbc e40d d0bd 7a8c cb3d 1b1f 06be
000000f0: 7a65 fa3d 3c14 373d b8e4 bfbd bda0 003e
00000100: f6bd d5bd 8635 e6bd 06b8 a5bd 708e 5f3c
00000110: 2069 a1bc c242 fd3d 9925 90bd 0d9b 8bbd
00000120: 4810 a73c f0e9 e4bd a0c0 42bc 7dc1 e7bd
00000130: fc98 d83d d8bb d43d 5c94 5b3d e860 b93c
00000140: ba1a bbbd 53d7 96bd 780e ec3c 7955 8bbd
00000150: eac4 f93d a803 92bd 788b afbd 3c58 bb3d
00000160: 106a 433d 902c 0b3d a050 5ebd 20e3 54bc
00000170: 64f6 963d dcf7 39bd 0caf f7bc 1b89 033e
00000180: 66ec 923d 4946 02be 80d0 3bbc 317d 8ebd
00000190: 12d2 d33d 5bac dbbd 50d0 153d 9d6e f3bd
000001a0: 165a 01be 6282 cbbd 90e8 c13d 0af7 fb3d
000001b0: b6a9 dd3d 744d 64bd bd8f b7bd 2851 643d
000001c0: 7a7f e93d 2cbd 2f3d e10e e9bd f887 76bd
000001d0: 9518 98bd 7606 22bd 5145 80bd 4559 093e
000001e0: 6215 a1bd 1e16 0dbd 7db0 043e ce84 69bd
000001f0: e0d0 a7bd c094 d53b 3ec0 42bd 5421 743d
00000200: 10dc 0abd 8208 dabd 00c1 eb3b 961e 89bd
00000210: b835 fdbd 0ce4 5dbd 988d a7bc f4c3 e3bc
00000220: cd52 9bbd fbce 01be 2cfc 1fbd 023f 943d
00000230: 3e0f 92bd fa66 ffbd b0d6 c43c 7c04 bdbd
00000240: 72e1 973d 28a7 aa3d 2e9a de3d fcc0 0bbe
00000250: bcf2 e2bd 4062 a23d 5625 51bd b043 07bc
00000260: 5e21 ec3d a091 3b3d 0665 88bd fcc2 80bd
00000270: e26b 2ebd b6d0 dcbd 3216 d9bd dd94 efbd
00000280: 4bda 02be 8068 daba 462b 40bd d800 163d
00000290: edc6 073e d2b6 e13d f018 803d 28f5 f7bd
000002a0: 1cfc 20bd 70c1 5c3d 5858 773d 062e 98bd
000002b0: ee73 39bd 0a42 fb3d c08d 8cbd 040c c53d
000002c0: d035 64bc 60e8 06bc f2ed 19bd 4c41 1c3d
000002d0: b65f ab3d b0a7 2dbc 0af9 bfbd 3081 a33c
000002e0: 8146 01be 2e55 b5bd 7007 fcbd 60d2 fc3b
000002f0: 3052 ec3c 28b3 74bd 0070 27bd 25c1 013e
00000300: 5051 1b3d aa68 a7bd 8af9 23bd a8c7 a8bc
00000310: 80c2 55bd 284e e23c baee c23d 8447 143d
00000320: a0c8 b33d 82a8 9bbd cab1 77bd 4c52 64bd
00000330: 9a19 993d f8f3 a03c aa79 ad3d 9310 04be
00000340: 2718 94bd c886 6abd e660 b9bd fea7 c33d
00000350: cb9a 04be c05c a03d 54ad 8dbd 90bd 77bc
00000360: 8e0d 863d 5225 a9bd 8016 a93c 9806 82bd
00000370: ef49 f3bd 14b9 cb3d 0277 cdbd 4b39 80bd
00000380: b8f9 3ebd 2e31 f43d 256a 09be 3004 37bc
00000390: 5097 dbbd b058 3e3d 701c 553d 34c8 07be
000003a0: 209e 32bd f4fb d33d f49f a6bd 7cc9 ffbc
000003b0: 0031 f6bb 7c3e 0bbe 801f c5bd d046 b43c
000003c0: 8ac7 d13d 222d 18bd 86d6 fbbd e82d a23d
000003d0: 94d4 6e3d cfbd 0fbe 6636 bb3d 0819 e6bd
000003e0: 0039 263a c0a4 1b3d 50dc 4e3d e045 803c
000003f0: 32e8 f33d f45b 57bd ad17 083e fad0 f7bd

out.bias f4 [3]
-0.006531777 0.037041277 -0.076154664
00000000: 8408 d6bb 98b8 173d faf6 9bbd

out.weight f4 [3, 50]
-0.13694422 -0.04129204 -0.02726584 0.019947365 0.0049723536 -0.117957145 -0.11478782 0.09284286
0.03242481 -0.08254193 0.13386405 0.05139056 -0.13491285 -0.081668556 -0.076658405 -0.03857772
0.10569783 0.17458163 0.05683303 -0.022710826 -0.039009124 -0.09871343 -0.08512064 -0.021282762
-0.11507528 0.16068654 -0.12640591 -0.048675887 0.03306416 -0.15859042 0.027963707 0.0048249215
-0.0630684 0.10567121 -0.13256219 0.09112832 0.05240216 0.06599284 -0.06633543 0.08039897
0.023116052 -0.06834421 -0.13281015 -0.17206834 0.1656437 0.043972008 -0.12163379 0.044345807
-0.040996447 -0.023200281 -0.1075054 0.045522943 0.08701131 0.045428306 0.035967544 0.06730586
0.031201228 -0.14809787 0.06599478 0.123711616 0.011973975 -0.12319008 0.031333335 0.10598126
0.032108493 -0.119814694 0.05761188 -0.04098082 0.09044319 0.081355296 0.098687515 -0.13632275
0.11493535 -0.03996236 -0.121969566 -0.15276554 0.035284307 -0.116116695 0.099320464 0.01591761
0.11632493 0.050628886 -0.054359697 0.08264515 0.10933794 -0.14652106 0.09873908 0.10582189
0.073382616 -0.14657849 0.063782066 0.017097246 -0.019319143 0.06429046 -0.09019212 0.14021939
0.054437667 0.11514493 -0.1397894 -0.029465908 -0.008011073 0.08416121 -0.08094922 -0.064744845
0.0102618635 -0.11454137 -0.013222545 0.01572865 -0.09824756 0.082948186 0.028171742 0.1384535
0.014428855 -0.05296436 0.062273163 -0.08656557 -0.15483947 0.03374298 0.07292798 -0.08737853
0.18585049 0.10826285 0.07016416 0.046607956 0.09297888 -0.18369995 -0.070416026 -0.009633839
0.044925198 0.08476092 -0.123747036 -0.10576081 0.12815733 -0.03836257 -0.10416844 -0.06348455
-0.10338214 0.037474483 0.021507055 -0.14450447 0.13977252 -0.1156241 -0.0965259 0.06968124
-0.15301007 0.07139548 -0.13157001 -0.06591464 0.13144632 0.1615193
00000000: 1b3b 0cbe d821 29bd 9c5c dfbc a868 a33c
00000010: 20ef a23b 8493 f1bd e015 ebbd 6624 be3d
00000020: e1cf 043d be0b a9bd a813 093e e87e 523d
00000030: 9826 0abe d841 a7bd 15ff 9cbd ac03 1ebd
00000040: 1b78 d83d 87c5 323e c0c9 683d 0e0c babc
00000050: 08c8 1fbd 442a cabd bb53 aebd 3059 aebc
00000060: 97ac ebbd 038b 243e 8d70 01be 5e60 47bd
00000070: 496e 073d 8765 22be 2514 e53c 601a 9e3b
00000080: 012a 81bd 266a d83d 62be 07be 7ca1 ba3d
00000090: a6a3 563d 4127 873d dfda 87bd 37a8 a43d
000000a0: e05d bd3c 0df8 8bbd 62ff 07be af32 30be
000000b0: 819e 293e fe1b 343d 231b f9bd f3a3 353d
000000c0: e4eb 27bd 840e bebc cb2b dcbd 4476 3a3d
000000d0: fc32 b23d 0813 3a3d b452 133d a8d7 893d
000000e0: b899 ff3c f8a6 17be 4528 873d 845c fd3d
000000f0: 7e2e 443c 154b fcbd 6257 003d b40c d93d
00000100: 3284 033d 6861 f5bd 6ffa 6b3d 81db 27bd
00000110: 473a b93d 9b9d a63d ae1c ca3d 3198 0bbe
00000120: 3a63 eb3d 92af 23bd 2ecb f9bd 926e 1cbe
00000130: 4786 103d 97ce edbd 8768 cb3d a665 823c
00000140: c43b ee3d 3c60 4f3d 46a8 5ebd dc41 a93d
00000150: 92ec df3d 9e09 16be b737 ca3d 26b9 d83d
00000160: a049 963d ac18 16be 2ca0 823d 860f 8c3c
00000170: 2e43 9ebc b7aa 833d a5b6 b8bd ac95 0f3e
00000180: 08fa 5e3d 1bd1 eb3d f424 0fbe 7d62 f1bc
00000190: e040 03bc b65c ac3d b4c8 a5bd f298 84bd
000001a0: 6021 283c aa94 eabd 60a3 58bc 5fd9 803c
000001b0: 0436 c9bd bde0 a93d 6dc8 e63c c1c6 0d3e
000001c0: 0167 6c3c 28f1 58bd 2512 7f3d 4a49 b1bd
000001d0: 3d8e 1ebe 1436 0a3d 445b 953d 84f3 b2bd
000001e0: 974f 3e3e eab8 dd3d 3ab2 8f3d fce7 3e3d
000001f0: b66b be3d d71b 3cbe 4736 90bd 40d7 1dbc
00000200: 7c03 383d 2297 ad3d 166f fdbd 2099 d8bd
00000210: ad3b 033e 1222 1dbd 4356 d5bd 3004 82bd
00000220: 04ba d3bd d87e 193d 902f b03c fbf8 13be
00000230: 8720 0f3e 54cc ecbd 5faf c5bd 0ab5 8e3d
00000240: acae 1cbe cb37 923d 4aba 06be 41fe 86bd
00000250: dd99 063e 5165 253e
