onnx_models/sklearn_iris_model_after_pruning.onnx (onnx, 12719 bytes, 6 tensors)

coefficient f4 [4, 50]
0.03454507 0.20943591 -0.05613751 0.13166364 0.28180733 0.19851148 -0.08461309 -3.5001238e-05
0.041549027 -0.066814154 -0.01168152 0.2847144 -0.11459766 -0.12633249 0.30328822 -0.10495112
-0.10309688 -0.12345669 -0.17331094 -0.024263455 -0.23427002 0.16226296 -0.16033174 0.01009298
-9.287338e-05 0.11106884 -0.07346541 -0.08128025 0.24806073 0.26752982 -0.041633215 0.25856614
-0.102876484 -0.060995672 -0.13821407 0.28403336 0.08977784 0.33427337 0.23954856 -0.0012040227
-0.16313319 -0.1805463 -0.22585402 0.2611269 0.09972926 0.26727036 0.2290782 -0.14503767
0.09002191 -0.006754231 0.062521294 -0.2116456 -0.061680876 0.3035015 0.15211527 0.11594103
-0.19678089 0.0011331266 -0.08060727 -0.0022071397 -0.017335128 -0.31622747 0.008537346 0.127535
0.2254135 -0.020569263 0.049374204 -0.11935584 0.008239766 0.049933083 0.37554654 -0.18003543
-0.17977802 -0.0345936 -0.07509597 0.23954397 -0.10841617 -0.09332444 0.02957872 0.2714242
0.026627742 0.36156714 -0.0380498 0.3583001 0.05941501 0.020946035 -0.09502042 0.10310449
0.10237287 -0.16403283 0.0053922012 -0.007884448 -0.076219596 0.14886811 -0.2834908 0.21555436
0.14064503 0.021165809 -0.10613862 -0.11396039 -0.0949829 0.2103975 -0.0934476 0.1580829
-0.26712865 0.19368549 0.20009397 -0.027778896 -0.10355367 -0.06724191 -0.052982382 -0.23754506
0.0068047727 -0.055638187 -0.034434862 -0.045541946 0.0015681346 0.007365967 -0.045993496 0.12687019
0.2473737 -0.1457832 -0.106045716 -0.102366485 -0.09953615 -0.12395199 0.42787218 0.0071147187
0.13467388 -0.23053733 0.4491278 0.2295253 -0.024533505 0.26130226 -0.061499037 -0.4367157
-0.03957146 0.036589485 -0.41458324 0.0049064807 0.00021933869 0.09098778 0.22618341 -0.17984451
0.40692133 0.30796564 -0.38811004 0.3748075 0.04896342 -0.15596041 0.10719636 0.14780682
-0.030568652 -0.053388294 -0.42392802 0.24413793 0.016184568 -0.100634165 0.16108638 -0.049799692
-0.011659971 0.04480095 -0.000534684 -0.04331832 -0.22066249 0.034824595 -0.15796036 0.07686889
0.049679253 0.21045317 -0.29604286 -0.168435 2.0754645e-07 -0.030838732 -0.04385058 -0.47500417
0.08771856 0.019640695 -0.323889 -0.4238043 0.13318901 0.16552354 0.18162058 -0.16025043
-0.052244835 -0.040123675 0.020568501 -0.4353563 -0.16359262 0.05591385 -0.013623367 0.10739783
0.38018125 -0.33940038 0.075297266 -0.24628164 -0.08788011 0.35776937 0.3752583 -0.17993143
00000000: 227f 0d3d 5e76 563e 72f0 65bd d5d2 063e
00000010: 0d49 903e 9846 4b3e a149 adbd 4bce 12b8
00000020: 502f 2a3d dcd5 88bd d963 3fbc 16c6 913e
00000030: 2eb2 eabd 4e5d 01be 9848 9b3e 9df0 d6bd
00000040: 7524 d3bd dcd6 fcbd 6c78 31be 27c4 c6bc
00000050: 7be4 6fbe 4328 263e 012e 24be 075d 253c
00000060: 04c5 c2b8 0f78 e33d 0875 96bd 4276 a6bd
00000070: a203 7e3e abf9 883e 9787 2abd c862 843e
00000080: e8b0 d2bd 99d6 79bd fd87 0dbe d26c 913e
00000090: 72dd b73d e125 ab3e 384c 753e 4cd0 9dba
000000a0: 630c 27be 21e1 38be 4746 67be 6db2 853e
000000b0: db3e cc3d a9d7 883e 7a93 6a3e c184 14be
000000c0: 685d b83d 9952 ddbb 2a0b 803d a0b9 58be
000000d0: 16a5 7cbd 8c64 9b3e 1bc4 1b3e 7e72 ed3d
000000e0: ee80 49be 6b85 943a 6d15 a5bd a9a5 10bb
000000f0: 6602 8ebc 91e8 a1be 39e0 0b3c 8998 023e
00000100: ccd2 663e df80 a8bc 9b3c 4a3d d670 f4bd
00000110: 1500 073c a286 4c3d a347 c03e 355b 38be
00000120: bb17 38be 05b2 0dbd eacb 99bd 044b 753e
00000130: 4c09 debd e220 bfbd 124f f23c 1df8 8a3e
00000140: 6c22 da3c 541f b93e 1bda 1bbd 1c73 b73e
00000150: 275d 733d 0597 ab3c 119a c2bd 7228 d33d
00000160: dea8 d13d 39f8 27be 10b1 b03b c62d 01bc
00000170: 0519 9cbd e270 183e b525 91be 48ba 5c3e
00000180: 4005 103e eb63 ad3c 345f d9bd 1164 e9bd
00000190: 6586 c2bd 7172 573e 7561 bfbd 7ce0 213e
000001a0: 16c5 88be 7d55 463e 6fe5 4c3e 9190 e3bc
000001b0: f213 d4bd 20b6 89bd 0e04 59bd 033f 73be
000001c0: 92fa de3b dee4 63bd 920b 0dbd 318a 3abd
000001d0: de89 cd3a 365e f13b ad63 3cbd 42ea 013e
000001e0: 884f 7d3e 3148 15be 7f2e d9bd 85a5 d1bd
000001f0: 9cd9 cbbd 8ada fdbd 1012 db3e 9622 e93b
00000200: f3e7 093e fa11 6cbe 14f4 e53e ae08 6b3e
00000210: 7dfa c8bc 69c9 853e 6ae6 7bbd 3399 dfbe
00000220: af15 22bd dbde 153d 4144 d4be 8bc6 a03b
00000230: 48fe 6539 cd57 ba3d a09c 673e 2929 38be
00000240: fe57 d03e acad 9d3e 5cb6 c6be c5e6 bf3e
00000250: de8d 483d 16b4 1fbe c489 db3d ac5a 173e
00000260: 1c6b fabc afad 5abd 180d d9be 4bff 793e
00000270: 8095 843c 4919 cebd d4f3 243e c3fa 4bbd
00000280: 7709 3fbc 3381 373d 092a 0cba 8d6e 31bd
00000290: 59f5 61be 3ca4 0e3d 5cc0 21be 706d 9d3d
000002a0: 797c 4b3d 0981 573e ee92 97be 3a7a 2cbe
000002b0: efd9 5e34 82a1 fcbc aa9c 33bd bf33 f3be
000002c0: caa5 b33d 86e5 a03c c7d4 a5be e1fc d8be
000002d0: b362 083e 017f 293e bffa 393e b018 24be
000002e0: aefe 55bd b958 24bd 467f a83c 05e7 debe
000002f0: d384 27be ec05 653d 8b34 5fbc 65f3 db3d
00000300: 1ea7 c23e e3c5 adbe 7435 9a3d 4131 7cbe
00000310: 7dfa b3bd 8c2d b73e db21 c03e f23f 38be

intercepts f4 [1, 50]
0.408653 -0.43518674 -0.08621089 -0.076292776 0.20181572 0.189498 -0.3181867 -0.2772013
-0.2187695 -0.30387676 0.04801681 -0.22444473 -0.11675015 0.11984786 0.084474176 -0.22638206
0.122034945 -0.14318852 -0.0031337165 -0.20004606 0.06797754 -0.2814738 -0.3038645 -0.3277946
-0.26868707 0.45546505 0.09322898 0.26553106 0.08576621 -0.20240195 0.03394445 0.29921582
0.18952678 0.28007892 0.3153655 0.050864704 0.20182724 0.43662062 0.18119164 0.15717132
0.15823004 0.29686674 0.19789512 -0.2651686 -0.06978818 0.29618797 -0.050449714 0.0647182
-0.34453082 -0.06314953
00000000: f73a d13e ccd0 debe 568f b0bd 633f 9cbd
00000010: c8a8 4e3e c40b 423e 5ee9 a2be 54ed 8dbe
00000020: 1d05 60be bc95 9bbe 46ad 443d d7d4 65be
00000030: b41a efbd cb72 f53d cc00 ad3d b3d0 67be
00000040: 75ed f93d 03a0 12be 0a5f 4dbb e0d8 4cbe
00000050: cf37 8b3d 551d 90be 2194 9bbe b2d4 a7be
00000060: 5a91 89be b732 e93e d6ee be3d b0f3 873e
00000070: 32a6 af3d 7542 4fbe 5609 0b3d d132 993e
00000080: 4f13 423e 8166 8f3e 9677 a13e 8257 503d
00000090: cdab 4e3e bd8c df3e 4d8a 393e 85f1 203e
000000a0: 0e07 223e ebfe 973e 05a5 4a3e 2ec4 87be
000000b0: 1bed 8ebd f3a5 973e 5ca4 4ebd fa8a 843d
000000c0: 5866 b0be 8a54 81bd

coefficient1 f4 [50, 50]
-0.04053425 0.019647919 -0.07410527 -0.23185423 -0.005454047 0.014621651 0.08897964 -0.19886167
-0.17686611 0.101055026 0.1771538 -0.09949068 -0.1111283 -0.102440715 0.02876578 -0.08276506
-0.00042133173 0.21118404 9.545116e-05 -0.044240475 0.0033118443 0.14591677 -0.00041308877 0.058012646
-0.09922146 -0.1581585 -0.00015104799 0.039342716 0.0018849585 -0.22850639 -0.11763307 0.08506656
-0.00615249 -0.12498541 0.10696737 -0.19090617 0.22582872 0.0032599138 0.026391067 0.053340912
0.008631695 0.03652803 -0.04511902 -0.1449231 0.15314585 -0.12619789 0.070886664 0.18423393
-0.003875421 -0.05488166 0.3223953 -0.06646079 0.010891876 0.1477135 0.108504 0.05895354
-0.04085022 0.1095172 0.30426556 0.092425644 -0.24984547 -0.023902325 0.33835953 -0.030935548
0.08256602 -0.027135024 0.05896024 0.26540062 -0.05020096 -0.07456642 -0.008480314 0.032078907
-0.00036347518 0.027847815 -0.08694937 0.24580994 -0.013422398 0.016844291 0.093620665 0.13251205
-0.2134664 0.04973417 -5.684802e-06 0.21550712 -0.022055976 -0.055268742 -0.1136892 -0.06521021
-6.101441e-08 0.33667484 0.23448889 0.09149318 1.2377783e-05 -0.06982558 -0.10566328 -0.02199701
-0.051491685 -0.18046412 -0.03442875 -0.03786429 3.9555453e-05 -0.053812936 0.01746095 -0.00015319776
-0.017507227 0.0034459808 -0.050883513 0.07191414 0.10312119 0.013792426 0.030372329 0.039887298
0.00092980685 -3.3717777e-06 -0.07886088 -7.192552e-05 0.00041148564 4.929744e-05 0.06703548 -0.07721696
0.033177435 -0.049231593 -0.00018908591 0.01527304 0.04622328 -0.0561606 0.00050829316 -0.058527756
-1.2560594e-07 0.079486646 -0.063489676 -0.0023982287 -0.027745742 -0.035654273 -0.0038329193 -0.02391973
-0.0094423145 0.05432205 0.01839103 -0.0063265804 2.1973087e-06 0.10613014 -0.0028391983 0.0006665371
2.6745965e-06 -0.05441681 0.0387723 -0.005933257 -0.013518575 0.023420028 -0.08258401 0.22500275
0.016767222 0.0955279 -0.23195587 -0.0603226 2.1819556e-05 -0.15911888 -0.02115165 -0.11474635
0.12416261 -0.0004351529 0.27621886 0.09197438 -0.01307591 0.009787236 -0.09454061 -0.14583637
-5.54074e-05 -1.6443075e-06 -0.06897003 -0.012190686 -0.09612312 0.0052257073 -0.0005975388 -0.018685708
-0.06958872 -0.02246864 -0.04046065 -0.041683882 0.13821828 -0.07456329 -0.09199401 0.10940045
0.09826564 -0.06494489 0.1452497 -0.030938838 0.050576687 -0.15860422 -0.21277407 0.21093774
-2.83431e-05 0.22912832 0.20090285 0.21085145 -0.07464398 -0.073886536 -0.00409661 0.0136484755
-0.29308897 -0.05522413 -0.025786089 -0.25124007 -0.19913542 1.8185096e-06 6.514289e-05 0.11041377
-0.17800725 0.3628166 -0.06796911 3.3923483e-05 -0.31566265 -0.049527895 0.00055570016 -0.028947474
-0.00019948141 -0.020086428 -0.011717853 0.07831741 -0.0029038084 0.15937819 0.00012529362 0.17141595
0.006118733 -0.09118597 0.022688849 -0.02716966 -0.105613396 0.1570086 0.33569875 0.01195665
-0.0006107113 0.09708208 -0.36175174 0.2054324 0.25967064 0.063278176 -0.08518999 0.029919563
-0.07555663 -0.06903521 -0.08761811 0.058897663 -0.204055 -0.19773547 0.021424256 -0.026215252
0.054702383 -0.080010094 0.17766723 -0.059588946 -0.08178387 -0.054742765 -0.048126567 -0.006502724
00000000: 3e07 26bd acf4 a03c 81c4 97bd 326b 6dbe
00000010: ddb7 b2bb a68f 6f3c f53a b63d 65a2 4bbe
00000020: 641c 35be f0f5 ce3d ce67 353e c5c1 cbbd
00000030: 3c97 e3bd 70cc d1bd 37a6 eb3c ba80 a9bd
00000040: 30e6 dcb9 a140 583e f42c c838 8035 35bd
00000050: 870b 593b 356b 153e d693 d8b9 ab9e 6d3d
00000060: 9f34 cbbd 4df4 21be a362 1eb9 d425 213d
00000070: b610 f73a 94fd 69be 9be9 f0bd 6037 ae3d
00000080: d49a c9bb 5af8 ffbd b511 db3d e87c 43be
00000090: a53f 673e 47a4 553b 1432 d83c 007c 5a3d
000000a0: f46b 0d3c 6a9e 153d b9ce 38bd b966 14be
000000b0: 44d2 1c3e 053a 01be 072d 913d d2a7 3c3e
000000c0: c6fa 7dbb 97cb 60bd ff10 a53e 981c 88bd
000000d0: d773 323c 3542 173e 5837 de3d 4479 713d
000000e0: 8f52 27bd 8e4a e03d b2c8 9b3e a849 bd3d
000000f0: 7ed7 7fbe cfce c3bc 763d ad3e 8c6c fdbc
00000100: 6018 a93d 454a debc 4b80 713d 97e2 873e
00000110: 869f 4dbd 47b6 98bd 04f1 0abc 2c65 033d
00000120: d090 beb9 1a21 e43c 8312 b2bd 9ab5 7b3e
00000130: 9ee9 5bbc 0afd 893c 31bc bf3d 3db1 073e
00000140: f096 5abe 0fb6 4b3d 14c0 beb6 e6ad 5c3e
00000150: bcae b4bc 7a61 62bd e2d5 e8bd ee8c 85bd
00000160: 0707 83b3 a560 ac3e db1d 703e c760 bb3d
00000170: 2caa 4f37 b700 8fbd fd65 d8bd 1333 b4bc
00000180: f2e8 52bd 96cb 38be 2905 0dbd 9617 1bbd
00000190: 58e8 2538 f46a 5cbd 440a 8f3c b6a3 20b9
000001a0: 516b 8fbc f7d5 613b 3b6b 50bd b847 933d
000001b0: 3431 d33d a1f9 613c 64cf f83c dd60 233d
000001c0: 48be 733a b346 62b6 d081 a1bd b8d6 96b8
000001d0: abbc d739 b9c4 4e38 e649 893d ed23 9ebd
000001e0: 10e5 073d 11a7 49bd 5d45 46b9 c63b 7a3c
000001f0: 9f54 3d3d a808 66bd fa3e 053a cdba 6fbd
00000200: 4cde 06b4 e5c9 a23d e006 82bd 9a2b 1dbb
00000210: 0a4b e3bc 370a 12bd b731 7bbb 4ff3 c3bc
00000220: f0b3 1abc cc80 5e3d c9a8 963c 344f cfbb
00000230: 7a75 1336 c25a d93d d811 3abb 8cba 2e3a
00000240: 387d 3336 29e4 5ebd b4cf 1e3d c46b c2bb
00000250: 037d 5dbc 5cdb bf3c ce21 a9bd 1f67 663e
00000260: 6a5b 893c 22a4 c33d d785 6dbe d514 77bd
00000270: 2409 b737 0ff0 22be 3a46 adbc 2200 ebbd
00000280: f748 fe3d 3c25 e4b9 8f6c 8d3e 105d bc3d
00000290: 573c 56bc a55a 203c 829e c1bd 2156 15be
000002a0: 3e65 68b8 fab1 dcb5 2940 8dbd 71bb 47bc
000002b0: 33dc c4bd 693c ab3b 26a4 1cba c512 99bc
000002c0: 8884 8ebd 2710 b8bc 11ba 25bd b8bc 2abd
000002d0: 1889 0d3e a3b4 98bd 5b67 bcbd 580d e03d
000002e0: 7f3f c93d d401 85bd 56bc 143e 7273 fdbc
000002f0: 8029 4f3d 2569 22be 72e1 59be 1000 583e
00000300: 58c2 edb7 9da0 6a3e 7ab9 4d3e 71e9 573e
00000310: f1de 98bd d351 97bd db3c 86bb db9d 5f3c
00000320: c20f 96be b332 62bd 593d d3bc 8aa2 80be
00000330: 28ea 4bbe 8413 f435 539d 8838 9d20 e23d
00000340: 8847 36be 19c3 b93e 6433 8bbd 1049 0e38
00000350: 899e a1be c3dd 4abd 68ac 113a 4123 edbc
00000360: e22b 51b9 4b8c a4bc 3dfc 3fbc e164 a03d
00000370: d24d 3ebb 0934 233e 4061 0339 aa87 2f3e
00000380: a77f c83b b6bf babd f7dd b93c e892 debc
00000390: d64b d8bd ddc6 203e b5e0 ab3e d3e5 433c
000003a0: 2418 20ba f8d2 c63d 8637 b9be df5c 523e
000003b0: 8df3 843e fd97 813d 1778 aebd df19 f53c
000003c0: 6fbd 9abd 5562 8dbd 2071 b3bd ad3e 713d
000003d0: cbf3 50be 2b7b 4abe ec81 af3c 5ec1 d6bc
000003e0: 9b0f 603d 55dc a3bd 66ee 353e 8a13 74bd
000003f0: 4d7e a7bd f339 60bd 5d20 45bd cd14 d5bb

intercepts1 f4 [1, 50]
-0.13080528 0.10970373 -0.08308922 -0.202825 0.13248082 -0.05078031 -0.10616541 -0.18245679
0.116660036 0.20149729 -0.050680332 -0.0005953345 -0.1592314 -0.09034873 -0.06885232 -0.11759078
0.19892445 -0.012285769 0.009633557 -0.10005805 -0.21026896 0.18020993 -0.17276002 0.19843416
0.17922197 -0.19759558 -0.067633 0.21406595 0.053055733 0.030326124 -0.06692518 0.020532712
0.21758376 -0.10762254 0.036560774 -0.26613003 0.16319677 -0.1535708 0.20582643 0.06320934
0.18372285 -0.2559643 -0.0073556704 -0.14261816 0.044585623 0.173942 0.045193747 0.064143516
0.0289304 0.20650169
00000000: d2f1 05be 59ac e03d ae2a aabd 5bb1 4fbe
00000010: 0da9 073e 04ff 4fbd 406d d9bd f4d5 3abe
00000020: 75eb ee3d 4e55 4e3e 2e96 4fbd 3910 1cba
00000030: 8e0d 23be c108 b9bd 7202 8dbd 6fd3 f0bd
00000040: dab2 4b3e 404a 49bc 11d6 1d3c 3ceb ccbd
00000050: bf50 57be f488 383e 01e8 30be 5332 4b3e
00000060: f785 373e 7f56 4abe 2c83 8abd 1b34 5b3e
00000070: f850 593d 7e6e f83c 1210 89bd 3834 a83c
00000080: 47ce 5e3e 3569 dcbd c0c0 153d 3242 88be
00000090: 0e1d 273e aa41 1dbe 2ac4 523e e673 813d
000000a0: d821 3c3e c10d 83be d607 f1bb 7f0a 12be
000000b0: 6a9f 363d da1d 323e 141d 393d ad5d 833d
000000c0: 72ff ec3c 2e75 533e

coefficient2 f4 [50, 3]
-0.17781217 0.015630202 0.30187756 -0.0985516 0.3646359 -0.4095056 -0.13201837 -0.03576602
-0.0015279554 0.015525616 -0.2526027 0.10715102 0.26928547 0.16135594 -0.26510575 0.014454163
0.1057161 3.4048036e-05 -0.15800628 -0.04578563 0.010400418 0.05780997 0.19985884 0.17265475
-0.30254722 -0.048741974 0.39606228 -0.15249512 -0.047065776 -0.40099397 0.02564787 0.02302561
-0.30578795 -0.027210204 0.01169961 0.033500828 -0.23856056 -0.008235089 0.18638058 0.07617741
0.1531145 -0.07157847 -0.14980614 -0.005572334 0.004823293 -0.089472234 -0.1778036 -0.11432465
0.15455627 0.090771794 0.008709841 -0.08894187 -0.16722727 0.1716564 -0.13590673 -0.04938702
-0.09127261 -0.052375767 0.12457718 -0.011450588 -0.043906797 -0.026615718 -0.13843821 0.26835957
-0.19159947 -0.46250674 -0.015697354 -0.08970682 -0.18038915 0.41183168 -0.32070777 -0.19551197
-0.015475621 0.042101864 -0.13227075 -0.24369039 -0.09285773 0.122327134 0.04879589 0.016188333
0.045629494 0.27665403 -0.24537595 0.20712441 0.103003405 0.16509958 0.00085404416 0.08745274
-0.053590253 -0.041711863 0.20263462 -0.40954408 -0.39492068 -0.0050907563 -0.13070527 -0.15778103
-0.0011636997 0.054557547 -0.1515874 -0.47100437 -0.096337155 0.22838274 0.109035015 -0.22245061
0.3386129 -0.09247247 0.29495433 -0.11796363 0.22070464 0.30029675 -0.14579189 -0.13363929
0.000579816 -0.0053426274 -0.002598369 0.023915214 0.044147223 -0.39341283 0.32698897 -0.02494898
0.11667881 -0.25955397 -0.011745808 -0.089029886 0.28188863 -0.054836124 0.10198198 -0.050775323
0.069298595 -0.15029345 0.24847622 -0.32996368 -0.16081093 -0.16212355 -0.25302085 0.042379815
0.21749757 0.2021518 -0.112764314 0.04773252 2.2176052e-06 0.26906294 -0.3033671 -0.3157224
-0.06389551 0.11026061 0.0046233414 -0.11942266 0.1671652 0.00072977506
00000000: 6514 36be e90a 803c b28f 9a3e 6cd5 c9bd
00000010: 8fb1 ba3e b8aa d1be d32f 07be 647f 12bd
00000020: ad45 c8ba 275f 7e3c 2455 81be fe71 db3d
00000030: c9df 893e 7e3a 253e f1bb 87be 27d1 6c3c
00000040: af81 d83d cdce 0e38 66cc 21be b689 3bbd
00000050: 8466 2a3c 26ca 6c3d cca7 4c3e 68cc 303e
00000060: 78e7 9abe aaa5 47bd adc8 ca3e ae27 1cbe
00000070: 0bc8 40bd 154f cdbe 7b1b d23c 34a0 bc3c
00000080: 3d90 9cbe efe7 debc b9af 3f3c 2a38 093d
00000090: 3849 74be 77ec 06bc 8dda 3e3e e702 9c3d
000000a0: 0cca 1c3e bc97 92bd c866 19be 2098 b6bb
000000b0: b70c 9e3b 383d b7bd 2612 36be 0b23 eabd
000000c0: 0044 1e3e 90e6 b93d b9b3 0e3c 2827 b6bd
000000d0: a03d 2bbe b2c6 2f3e 222b 0bbe 0b4a 4abd
000000e0: 22ed babd f987 56bd 5222 ff3d 3f9b 3bbc
000000f0: 9dd7 33bd 3509 dabc bfc2 0dbe 6d66 893e
00000100: a732 44be afcd ecbe bd97 80bc 36b8 b7bd
00000110: efb7 38be 9adb d23e cf33 a4be 4a34 48be
00000120: 768d 7dbc 0173 2c3d fc71 07be f989 79be
00000130: 322c bebd a686 fa3d 33de 473d 659d 843c
00000140: fee5 3a3d 99a5 8d3e d543 7bbe 6c18 543e
00000150: 73f3 d23d dd0f 293e efe1 5f3a 6c1a b33d
00000160: 7481 5bbd 0fda 2abd 737f 4f3e c3af d1be
00000170: 0b33 cabe 5cd0 a6bb 9ad7 05be 5a91 21be
00000180: 4887 98ba bc77 5f3d ba39 1bbe 7c27 f1be
00000190: 6a4c c5bd 2add 693e c04d df3d 18ca 63be
000001a0: ac5e ad3e 3562 bdbd 4104 973e ea96 f1bd
000001b0: 6600 623e 7fc0 993e 784a 15be bdd8 08be
000001c0: cbfe 173a 3511 afbb 6649 2abb d7e9 c33c
000001d0: b8d3 343d 686d c9be 196b a73e ce61 ccbc
000001e0: 4df5 ee3d 42e4 84be 7d71 40bc 4d55 b6bd
000001f0: b553 903e d89b 60bd eedb d03d c9f9 4fbd
00000200: 6cec 8d3d 87e6 19be 8d70 7e3e 00f1 a8be
00000210: 9fab 24be b703 26be f38b 81be 7596 2d3d
00000220: afb7 5e3e e200 4f3e faf0 e6bd 2d83 433d
00000230: 2bd2 1436 9ec2 893e ef52 9bbe 5ea6 a1be
00000240: a6db 82bd 51d0 e13d 667f 973b de93 f4bd
00000250: 5b2d 2b3e 604e 3f3a

intercepts2 f4 [1, 3]
-0.047685772 0.048311867 0.2556862
00000000: 2852 43bd aae2 453d 4de9 823e
